model/conv_model.pt (torch_old, 248690 bytes, 10 tensors)

weight f4 [16, 3, 3, 3]
00000000: b853 c9be 664c c43d 1a52 533d a169 53be
00000010: c920 763e 77a7 6f3e af8d c7be 5486 363e
00000020: 2a1b b7bd 5b03 05be 4bb8 863e e6e0 1e3e
00000030: 7ed2 17be 8a40 513e 9128 753c d613 bcbe
00000040: 8e3e cb3e 5ac0 633d 78a1 a9be 478a f93d
00000050: 0264 393e 3739 74be c107 0bbd eb38 aebd
00000060: f6b1 d3be 3237 c43e 127c 823e 4f9f 043e
00000070: a324 18be ac3f 85be 2eee 3abe 8f94 34be
00000080: 4c58 43be 0fd6 353e 7816 a0bd 03f3 333e
00000090: 8180 15be 8ac1 4bbe ca87 fdbd de2a 2ebe
000000a0: 8c3e 00be 9bfa 753d 7d8e 6b3d 6bd6 cebd
000000b0: 1474 f63d 598c 91bd 20a4 95bd 604f 81be
000000c0: 0215 42be e59b b0bb 7762 2cbd b7bf 353e
000000d0: 0f14 453e ac60 1f3e 91c5 30be 12cd 943e
000000e0: ab9d 25bd eeda 91be dff6 7b3c 6b1e 593d
000000f0: 7732 8bbe eba7 ab3e d8c6 f63d b3bb 00be
00000100: 30db 6f3e 1501 ebbd dac5 90be a6ea b53e
00000110: b197 acba 46fc c0be 2d0d be3e 8b79 63bd
00000120: 44a7 6abe 9782 d23d 004a 953d 083c ddbe
00000130: 4040 b23e 5e13 563e 4a01 b9be 0bca 893d
00000140: 7f14 363e 353f d3be 27be 40be d4c1 15be
00000150: 9c51 253e 0a55 40bd 3fb1 a33e e102 243e
00000160: 4236 053c 2b1d 123e be69 4cbe a1a3 c4be
00000170: bded 49be af66 0f3d eaf4 ca3b a978 f03d
00000180: 2930 9c3e 5757 b43d fc2a 6a3e 9116 aabe
00000190: 8fe5 70be 1163 a5be 66a6 2e3e 9cab 713e
000001a0: f8ab f53d 6831 4abc 8d70 c13e 64b3 cfbc
000001b0: 0d5f bdbd 7fa0 9fbd 0267 d8ba ffad 03bc
000001c0: 8647 3c3d faed d03d d0ae 42be eeb8 7dbd
000001d0: 40e9 2b3c 99cd 553d b707 013e b1b4 3ebd
000001e0: 4b5d 32bc 6afc 83bc 73b2 c5bd 1718 9abe
000001f0: ccb7 fcbd a517 ab3c e31b 1ebd 2925 443e
00000200: 180d e93d 034c ea3c 1f4a 03bd 4cc6 1bbd
00000210: 94cc 4dbe baf2 23be e64e 2d3c f9bb 04be
00000220: da2e d7bd b14b 3cbe 7686 213e 7771 48be
00000230: 7b10 713d 9a07 2dbe fb46 ffbd 74b0 5c3e
00000240: 1573 35be 5efc 80be 23cc 44be b84c 1f3c
00000250: d6cc 83bd c9f8 8cbd 7403 023d 710a e7bc
00000260: d5be 40bd f70a 5cbe 04be afbd cc1c 2cbe
00000270: c371 173e cf32 7abe 9652 fabd ff48 5a3d
00000280: 8c5d 08be d71c cabd cb31 9fbe b471 65be
00000290: 1a9c b53e d2c8 aebd 9e92 da3a a266 d93d
000002a0: cde5 3d3b 1153 0cbe 7bdd 983e 774e 65be
000002b0: 7c21 b13d 0466 423e 2e16 1dbe 5e2d acbc
000002c0: 9914 df3e e4e2 5bbc 0fc0 cebd 153d 783e
000002d0: 3594 5dbe 4040 153a 4dc6 723e f26e 52be
000002e0: aa16 24bd 5562 aa3d 6dbd a1be 72ab 6a3b
000002f0: e41c ca3c de14 7c3e ce4a e7bd b373 bcbe
00000300: 4069 0c3e e3d0 97bd 3602 b2be 11a5 b3bd
00000310: a944 49be 030e 3cbd c960 623e 0c31 bbbe
00000320: ad81 97be 5216 eb3d a75c d4bb 1287 a2be
00000330: 4cc4 7e3d bf0d 40be 5b89 18bd 5c08 743e
00000340: 3d0a a6bd 2ac4 07be 9b8a 683e 99b0 8dbe
00000350: 2e19 c9bd 149f e03a 181b e1bb 54db 023e
00000360: cf06 933d c21d 91bd c4f6 96be ca5a 8dbd
00000370: 2d4c 91bd 51d3 5ebd 3d4d 1abe d08d a23d
00000380: 6f39 f8bd 7948 30bd b328 413c 37f5 d3be
00000390: 266f 3fbe ca99 74be d967 363d 9152 8abe
000003a0: 7d9c 17be 10c2 2e3d e90e 26be 72ad 45be
000003b0: b59b 4bbe 6c40 41be 1b8b 8c3d c41f be3c
000003c0: 0325 323d 67f9 b3bd b5d8 6abe 5ca9 7abe
000003d0: 103c 95be 6d73 b4bd e321 27be 7d2c 42be
000003e0: 33b4 013e 49e3 15be a8e4 bfbd f6b9 513e
000003f0: 2aba 2cbe 9bf2 8abc b9e7 33bc c9cb 05bd
-0.39321685 0.09584884 0.05159197 -0.20645763 0.24035944 0.23403727 -0.38975284 0.1782468
-0.08940728 -0.12989561 0.2631248 0.1551548 -0.1482639 0.20434776 0.014963285 -0.36733884
0.39696163 0.055603363 -0.33131003 0.121845774 0.18104556 -0.2384995 -0.03394294 -0.0850695
-0.4134671 0.3832336 0.25485283 0.12951396 -0.14857726 -0.2602514 -0.18254921 -0.17634796
-0.19076651 0.17757438 -0.078167856 0.1757317 -0.14599802 -0.19898048 -0.12379415 -0.1700854
-0.1252386 0.06005345 0.057508934 -0.10099491 0.12033859 -0.07106847 -0.07306695 -0.2525587
-0.18953326 -0.005389678 -0.04208609 0.17748915 0.19245933 0.15564221 -0.17262866 0.29062706
-0.040433567 -0.28487343 0.015378683 0.053007524 -0.2718694 0.3352655 0.12049645 -0.12571602
0.23423457 -0.11474816 -0.2827595 0.35530585 -0.0013167766 -0.3769247 0.37119427 -0.055535834
-0.2291537 0.10278814 0.07289505 -0.43209863 0.34814644 0.20905825 -0.36133796 0.0672799
0.17781256 -0.4125916 -0.18822537 -0.14624721 0.16144413 -0.0469561 0.31971166 0.16016723
0.008130612 0.14268939 -0.19962212 -0.3840609 -0.19719596 0.035010036 0.006193747 0.11741764
0.30505493 0.08805721 0.2286796 -0.33220342 -0.2352507 -0.32302144 0.17055663 0.2360062
0.11995691 -0.012340881 0.37781182 -0.025354095 -0.09246645 -0.07794284 -0.0016510191 -0.008037089
0.045966648 0.102016404 -0.19011998 -0.06194394 0.010492623 0.052198026 0.12600599 -0.04655904
-0.010886501 -0.016111571 -0.09653177 -0.30096504 -0.12339744 0.020885298 -0.038600814 0.191548
0.113794506 0.028600698 -0.03205311 -0.038030908 -0.20097572 -0.16010562 0.010577893 -0.12962331
-0.10506983 -0.18388249 0.15773949 -0.19574533 0.058853608 -0.16897431 -0.1246471 0.21551687
-0.17719682 -0.2519254 -0.19218497 0.009722881 -0.06435554 -0.068833895 0.031741574 -0.028203221
-0.04705699 -0.21488558 -0.085811645 -0.1680786 0.1478949 -0.24433444 -0.12222783 0.05329227
-0.13316935 -0.09868782 -0.31092677 -0.22406656 0.3547066 -0.08534397 0.0016675775 0.10615279
0.0028976083 -0.13703562 0.29856476 -0.22393213 0.08648965 0.18984228 -0.15340492 -0.021017727
0.43570402 -0.013420794 -0.10095226 0.24242051 -0.21638568 0.0005693473 0.23708458 -0.20550135
-0.040060677 0.083195366 -0.31589833 0.0035807756 0.02467198 0.24617335 -0.11293565 -0.36807021
0.13712025 -0.07412889 -0.34767312 -0.08771718 -0.19655098 -0.0459118 0.22107233 -0.36560857
-0.29591122 0.11478867 -0.0064807716 -0.31743675 0.062198922 -0.18755244 -0.037240367 0.23831314
-0.081074215 -0.13258424 0.22709124 -0.27673796 -0.09819256 0.0017137253 -0.006869685 0.1277898
0.07179033 -0.07085754 -0.29485142 -0.06902082 -0.070946075 -0.054400746 -0.15068527 0.07937205
-0.121203296 -0.043037865 0.011789489 -0.41398022 -0.18694744 -0.23886791 0.04453263 -0.27016118
-0.1480579 0.04266554 -0.16216625 -0.19304445 -0.19883616 -0.18872231 0.0686247 0.023208506
0.04349233 -0.08787804 -0.2293423 -0.24478668 -0.29147387 -0.08811078 -0.1632152 -0.18962283
0.12666397 -0.14637484 -0.093697846 0.20481095 -0.16867891 -0.016961386 -0.01098054 -0.032665048

bias f4 [16]
00000000: b097 d6bb bcbe 0dbf 56c3 e9bb d1b8 7cbd
00000010: 525f 0bbf 254f 25bf d24a dd3d 423a 23bf
00000020: b7e9 7fbe 0b69 d5be 8927 8d3e 049f 21bf
00000030: 5299 7a3d 7bd7 dbbe 173f 04be 5ee7 c93e
-0.0065488443 -0.5536916 -0.0071338816 -0.061699692 -0.5444232 -0.6457389 0.108052865 -0.6376077
-0.24991499 -0.41681704 0.27569225 -0.63133264 0.061181374 -0.42937836 -0.12914692 0.39434332

weight f4 [32, 16, 3, 3]
00000000: bfc0 5fbf c3d5 f4be cfe8 4ebd 67da 20bf
00000010: e6d6 0abf f154 923d b310 8ebe 39b2 65be
00000020: 027f 493e 9c78 4d3e 7bb0 9c3e c47d 823e
00000030: 9762 9e3e 5638 873e bbe7 f33d d7cb 263e
00000040: c512 e33d bac1 a03d 4207 61bf 9f2d fabe
00000050: 741e 0b3c 8929 c2be 8875 99be 912d 1ebd
00000060: ca12 d7be aee2 babe 5ae0 c43d 1168 a43d
00000070: dbbd 463e e83d 813e 9735 afbd 5c4e 9f3e
00000080: 3e09 ba3e 76a3 063e b76c 243e 7502 fd3d
00000090: 35cb b43e 76ed 043f 430c b93e 97fb cf3d
000000a0: da00 c13e 573b 4d3e 84d7 0e3e decd 483e
000000b0: 9ee2 f23d 0f5c 323e c369 003e 3497 8f3d
000000c0: 1d8c e03d 6806 193e 90b7 003e 5148 f93d
000000d0: 1ed3 b03c b4c0 8e3b ef8d b3be 3f3b 3abe
000000e0: 09d2 613c 1be6 acbe f5ef 49be a238 0f3d
000000f0: 2b90 efbd a856 d73d 015e b23d 8091 853e
00000100: 3baa 783e 3444 123e 5f1c 1d3e 625d b53d
00000110: a1e2 103d b011 773d 1615 07be 28b0 abbd
00000120: 424e 4a3d 9ed6 ad3c f49e a33d 95cd c53c
00000130: 336f 60bb 8f10 0e3c 0e70 07be 9b7f 103c
00000140: 7a43 b2bd 03ac dcbc ca9d 1a3d 5642 663e
00000150: 3af5 7b3b 8faa 323e 256e 303e 51be 703d
00000160: e90c 333d e26d 77bc 315a f5bc 1ed9 36bd
00000170: 15fe d0bd 1432 39be 7459 56bd f688 95bd
00000180: f181 d2bd f6cf 33be 3a3f 0cbe 6409 f23d
00000190: 7b4d 053f ff51 2b3f f7af b43e f599 0a3f
000001a0: 84ff ef3e ee93 663e 1b68 ce3e c416 ce3e
000001b0: d584 2e3e 83fc 37bd 1c24 0e3d 6a64 923e
000001c0: ff10 5c3d 1440 30bd 6092 273d 1f04 a9bd
000001d0: 1f2c 8abd 76b2 c0bd cf61 7fbe 752f 3fbe
000001e0: cfb1 973b 3e7f b0bd 1f37 01be 5519 07be
000001f0: b154 b2bd 6c2d 94be 7f5b bebd 5b1a c73d
00000200: 3ff9 a33d dcd5 6fbd bc11 1cbd 2064 6fbe
00000210: c7a9 19be e840 1abe 90ad 82be a0b4 c6be
00000220: c435 7bbe 0c74 953c 54d9 b7bd b092 0abe
00000230: 3659 19bd ffa8 50be 27a4 51be a720 9abd
00000240: 17f4 0dbd 9386 373e e9db 853e f042 77bd
00000250: 1ee7 e2be 28c4 933d e0fb d9bb d600 57bb
00000260: 504d 353e b4a4 fc3c 3c2f 153e b8d9 583e
00000270: a0c6 3b3d 0d2d 223e 062d 7a3e 992e 66bd
00000280: cbc9 c53c 4fbe 1e3e ef83 55bb b3cc 51bd
00000290: fbed 593e 0b52 983d 57ee ddbc 5386 0a3e
000002a0: eecc cbbd e4ed 27bd 7148 973d 8ddf 913e
000002b0: d86c bd3e 417d 943e bf89 753c 59cf 3e3e
000002c0: 7371 823e 80dd 1f3e 2dab f63d 9364 d03d
000002d0: ab9e c13d 784c 973e decd d63e 19b4 8abd
000002e0: c94d 883e 8e34 ae3e 2e6e 253d 1feb 823e
000002f0: 0aba d73e e73d a23b 20cb b33d ce65 5b3e
00000300: e31a 8bbb 6f0a da3d b300 f93d 1e6c efbd
00000310: 3583 de3b e323 6a3e e57d 58be fff7 103d
00000320: 6e51 373e b699 adbd 9f4b 5abe 5046 da3c
00000330: a293 0f3e e214 e6bb 358e b03c b5ac f33d
00000340: 6a86 743e a22e bc3e 13a6 bebc 378d 223e
00000350: f8c5 ad3e e1d0 943d d614 fd3d fa3a a53e
00000360: 9508 55be 382d 17be b205 94bc 5950 95bd
00000370: 4f06 9dbd 42cc 61bd 0221 4abe de0b bd3c
00000380: 2d9c 0e3e 2bab debd 5121 cdbd 7aba 283d
00000390: 44f8 fdbd 6980 c9bd cf41 3bbc db29 493d
000003a0: 9cbc 39bd 5d4a 333d b374 41be 4214 6bbd
000003b0: f86a 49bd 7fba 60bd 8017 1ebd b2bd cabd
000003c0: 897b 36be a36d 4abd 179b 9fbd 55cd b73d
000003d0: 5bc6 953e 2355 dc3e 2f7c ab3d 76f0 9b3e
000003e0: 9646 e13e 3f9e 143e a871 813e c8d3 b53e
000003f0: 5439 393e d6c7 043e 90c5 47bd 1fd9 543d
-0.8740348 -0.47819337 -0.050514992 -0.62833256 -0.5423416 0.071451075 -0.27747115 -0.22431268
0.19677356 0.2006554 0.30603394 0.25486577 0.30934593 0.26410168 0.119094335 0.16288696
0.110875644 0.078494504 -0.879017 -0.4886293 0.008491147 -0.37922314 -0.29972482 -0.038617674
-0.42006522 -0.36501068 0.09613104 0.080276616 0.19408362 0.25242543 -0.08555143 0.3111447
0.36335176 0.13148293 0.16057096 0.12353984 0.35311285 0.51924837 0.36142167 0.10155409
0.37695962 0.20042168 0.139494 0.19609782 0.1185963 0.1741793 0.12540345 0.070112616
0.109642245 0.1494385 0.12570024 0.121719964 0.021585044 0.004356468 -0.35069224 -0.18186663
0.013782986 -0.33769307 -0.19720443 0.03496612 -0.1169742 0.10514575 0.08709336 0.2608757
0.24283688 0.1428383 0.15342854 0.08855702 0.03537238 0.060319602 -0.13191637 -0.083832085
0.04939104 0.021220502 0.07989302 0.02414588 -0.0034245967 0.00867094 -0.13226339 0.008819486
-0.087042764 -0.02693749 0.037748136 0.22486243 0.0038445727 0.17447875 0.17229517 0.05877525
0.043713484 -0.015101882 -0.029950233 -0.044640653 -0.10204712 -0.1808551 -0.052331403 -0.07301514
-0.102786906 -0.175598 -0.13695994 0.11818197 0.5207135 0.6692199 0.352905 0.5414117
0.4687463 0.22517368 0.403138 0.40251744 0.17042859 -0.04491855 0.034702405 0.28592235
0.053727146 -0.04302986 0.04091108 -0.08252739 -0.06746697 -0.09409039 -0.24939655 -0.18670447
0.0046293507 -0.086180195 -0.12618683 -0.13193257 -0.0870756 -0.28940904 -0.09294795 0.09721824
0.08006524 -0.05855356 -0.03810285 -0.23378038 -0.15006171 -0.15063822 -0.25523043 -0.3880968
-0.24532229 0.018243812 -0.08976999 -0.1353252 -0.037438594 -0.20376967 -0.20472775 -0.07525759
-0.03465661 0.1792243 0.2614434 -0.06036657 -0.44316953 0.07215148 -0.0066523403 -0.0032806895
0.17705274 0.030840255 0.145688 0.21176803 0.04584372 0.15837498 0.24431238 -0.056196783
0.024144074 0.15502284 -0.003257986 -0.051220607 0.21282189 0.074375235 -0.027091188 0.13527803
-0.099511966 -0.040998355 0.07386864 0.28490868 0.36997104 0.2900181 0.0149864545 0.18633784
0.2547718 0.1561184 0.12044368 0.10175433 0.09454092 0.2955053 0.4195394 -0.06772632
0.26621845 0.3402447 0.04038828 0.25570008 0.42134124 0.004951227 0.087789774 0.21425554
-0.0042451485 0.10646521 0.121583365 -0.116905436 0.0067905434 0.22865252 -0.21141775 0.035392758
0.17902157 -0.08476584 -0.2131791 0.026644856 0.14021161 -0.0070215324 0.021552185 0.118981756
0.238794 0.36754328 -0.02327255 0.15874182 0.339401 0.07266403 0.1235749 0.32271558
-0.20804055 -0.14763343 -0.018069122 -0.07290716 -0.07667219 -0.055126436 -0.19739154 0.023076948
0.13926764 -0.108724914 -0.1001612 0.041193463 -0.124008685 -0.098389454 -0.011429264 0.049112182
-0.045345888 0.04377209 -0.18892173 -0.057392366 -0.04917428 -0.054865357 -0.03859663 -0.09899463
-0.17820562 -0.049420964 -0.07793253 0.08974711 0.29252896 0.43033704 0.083732955 0.30456895
0.43999165 0.14513491 0.25282025 0.3551314 0.18088275 0.12966856 -0.048772395 0.051964875

bias f4 [32]
00000000: 67fa 4ebe 765c 0cbe b22c 12be 8b03 993e
00000010: dee6 803e 4e1b 11be f431 603e bc2b bfbe
00000020: 6de5 3e3e 2b4c 85bd c9cd b93c 9abb 973e
00000030: 7c2c 133e 47d2 153e 1804 0c3e 030a 8bbd
00000040: adf4 a6be 7092 2a3e 6463 87bd 2ba6 2cbe
00000050: 5cee 613e f7d0 383c 7499 273e 02df f9bd
00000060: f155 4dbe 9d4a 973e 82a3 d83d ed92 5abe
00000070: 13e1 05be 6754 453d 8d6a 283c ef0b 93bd
-0.20212708 -0.13707146 -0.14274862 0.29885516 0.25176138 -0.14170572 0.21894056 -0.37338054
0.18642206 -0.065086685 0.022681134 0.29635316 0.14372438 0.14630996 0.13673437 -0.06789019
-0.32608548 0.16657424 -0.06610754 -0.16860263 0.22063583 0.01128029 0.16367131 -0.122007385
-0.20052315 0.29549113 0.10578062 -0.2134511 -0.1307414 0.048176195 0.01027931 -0.071800105

weight f4 [64, 32, 3, 3]
00000000: e662 ff3d cb58 a63d 0ff6 abbd 9287 ed3c
00000010: 955e 8dbc a459 113d 9cef 893d 78aa efbd
00000020: 86d0 e1bd 31a8 d73d 5293 94bc c9a5 2cbe
00000030: 4c33 f03d a4b9 74bd 5feb 12be f2b4 90bd
00000040: 470f 44be 9d8d 88be ac08 083e 4163 813d
00000050: 86b2 5e3e c77d 553d bb97 97bd 487f 2d3e
00000060: 82f8 333c 263a b33a fbd6 d83c 1b0c fb3d
00000070: f98b 36be 05be d2be 135a c6bd 9d8d 11be
00000080: 8926 8fbe 581f d03c eb35 24be 41bf 81be
00000090: 0d29 333e 6e55 a3bc ff46 843c 1441 9b3d
000000a0: 6b01 80bd 5622 bd3b 67f6 38bc fe6f b3bc
000000b0: db8d a93b eaaf c43d b22c b63d 9dc3 943d
000000c0: 70c9 ea3d 875e 9d3c 41e3 913d 241d 5f3c
000000d0: 1969 ae3c f838 173d 703d f83b fe5b 793d
000000e0: 71d2 813d 0d4d bf3d 79bd 963d 65ed 9dbc
000000f0: 3c95 943d df84 9b3c 094e 8c3d 7f5b e93d
00000100: bf45 13bb 6067 16b9 e784 9c3d 0154 1fbc
00000110: 3daf 7dbd 9b5a 123d 7f76 0ebe 9b4e 22be
00000120: 807e 10bd 1b09 883d d6ed 39bd 69f6 733c
00000130: c096 583d a9a1 c43d 5a0a bebc e584 313d
00000140: 00d2 313e a6b1 fc3d 719a 233d 3409 993c
00000150: aef9 0a3c bc7d a83c fec3 a13c df03 2abb
00000160: 8146 afbd 52ce e13b b5d7 043e 1330 d23d
00000170: d0f6 0bbd 118d 963d 4e40 8fbc fa0d 94bc
00000180: fa1f b03d 1be4 80bd 772e 83bd 65a7 a0be
00000190: 36fc 4dbe 3b46 57be c06d cdbd 65d7 1a3d
000001a0: 3520 88bd 1f67 cbbd cf64 12be 23e4 6fbe
000001b0: 258d bf3d 4f97 eebc a355 f93c 3c31 8a3d
000001c0: 38b2 9fbd db82 9ebc df02 36bd 383d 8a3d
000001d0: 188f 6cbd ec61 2cbd 78e7 24bd b67c 243d
000001e0: a6bf 8d3c fe0e 9b3d 1af9 a1bd 31d5 65be
000001f0: 3edf 89be e11f 74be 1b3e c4bd f7c0 95bd
00000200: da3a 9fbe 8211 87bd 0a1a 2ebc 869a 84be
00000210: a3a2 463c 7b33 373d 3d9d 4abe 9334 053e
00000220: c922 733d 4546 f3bc a51d c6bc b4bf 64bd
00000230: c7f6 d6bc 84e7 c03c 5f9d 423c 63eb 21bd
00000240: 9819 273e 7c27 623d 7bfe 5ebb 1aec 3a3d
00000250: b636 74bd 0b43 22bc ac92 483d 0d63 3ebd
00000260: a312 d0bd 6b81 4f3b fae6 033e 5a34 2c3e
00000270: 8efa 30bc f3d6 8d3d 700e 023e 332b 513c
00000280: 16b8 0dbc 1741 8b3d 786c 613d ebb5 123e
00000290: e937 613e cd56 28bc dfbb 2dbd 4b1b 713d
000002a0: a0cb 5bbd 4e8b 083d e79e faba b0a1 de3d
000002b0: bb2b a03d 0586 1c3e a07f 7e3d 11cb b0bc
000002c0: e502 063e 2eba 40bc ff37 c73c f327 fc3d
000002d0: ff99 ebbd 6ed7 a4bd ea2e 9bbd c1bf 1cbe
000002e0: 8748 15be b5f6 3fbd bb9d 5fbd 8641 afbd
000002f0: e6ef 25be 26a7 273e d575 6dbd f183 163d
00000300: 3e78 6a3d f68f a8bd 8c64 07be e6cd a9bd
00000310: a1f2 90be 1bab 71be 3543 cbbd a243 95bc
00000320: 3143 923d 9d2a c3bc 89c5 85bd 84a8 863d
00000330: fc83 0539 c6ee 0cbd a33c d9ba a022 283e
00000340: da9f cf3d 391a ad3d 0c16 c33c 4c1f febb
00000350: ada2 7b3d d79b e63d e937 dcbd 7570 f33c
00000360: 6c42 c33d 0c70 20bd 072a 243a 6672 b93d
00000370: 0441 ddbd eab2 aebc e514 4cbd f9e7 8bbe
00000380: 229b 88be b70b 0bbe 8d8f 79be 2656 bdbe
00000390: fc5d bdbd de40 7abe 9932 2abe 2a7a aa3c
000003a0: 8b0e 4ebe 671a 7abe 6bfa 24be 9d34 1cbf
000003b0: b33c 1abf bfad 54be 98eb 0fbf 63ee 15bf
000003c0: e186 913c eca8 cabe c5e1 e1be 6d1a cc3d
000003d0: a5b6 8f3d aa49 2c3e 85d1 06bd bf0b b5bd
000003e0: d3a9 853d e1ff d4bd 36d3 e0bd d5df e33c
000003f0: 9cf5 d53d b5f0 8e3d e609 c33c 6faf cb3d
0.12470035 0.08122405 -0.08396541 0.028995309 -0.017257014 0.03548588 0.06735155 -0.11702436
-0.11026101 0.10530127 -0.018136654 -0.16860117 0.11728534 -0.059747353 -0.143476 -0.070657626
-0.19146453 -0.26670542 0.13284558 0.06317759 0.21747789 0.052121904 -0.07401987 0.16943085
0.010984542 0.0013673946 0.026469698 0.12258168 -0.17826833 -0.41160598 -0.09685149 -0.14214177
-0.27959087 0.02540557 -0.16036193 -0.25341228 0.17496128 -0.019938197 0.016147135 0.07580772
-0.062502705 0.0057719154 -0.011289216 -0.021903988 0.005174381 0.096038654 0.08895244 0.07263873
0.114642024 0.019210113 0.07123423 0.0136177875 0.021290349 0.036919564 0.0075756833 0.060878746
0.06338967 0.09340868 0.07360358 -0.019278238 0.07255027 0.018984256 0.068508215 0.113944046
-0.0022471992 -0.00014343625 0.076425366 -0.009724618 -0.0619347 0.03573094 -0.1391239 -0.15850298
-0.03527689 0.06642362 -0.045392834 0.014890292 0.05287814 0.09601147 -0.023198295 0.04333963
0.17365265 0.12338571 0.03994221 0.018681146 0.00848238 0.020567767 0.019746777 -0.0025942249
-0.085583694 0.0068910504 0.1297291 0.10263076 -0.034170926 0.07351125 -0.017486718 -0.01807307
0.08599849 -0.06293508 -0.06405347 -0.31377712 -0.20115742 -0.21022885 -0.10030699 0.037803072
-0.06646768 -0.09931778 -0.14296268 -0.23426871 0.09353093 -0.029124884 0.030436343 0.06747672
-0.077976644 -0.019349506 -0.04443633 0.06749958 -0.057753652 -0.042085573 -0.04025981 0.040157996
0.0173033 0.07571219 -0.079088405 -0.22444607 -0.26928133 -0.23840286 -0.09582158 -0.07312196
-0.31099588 -0.06595136 -0.010626325 -0.25899142 0.012123737 0.04472683 -0.19786544 0.13008337
0.059359346 -0.029696593 -0.024184057 -0.055846885 -0.02624072 0.023547895 0.0118783405 -0.039531123
0.16318357 0.055213436 -0.0034026194 0.04563532 -0.05962249 -0.00990368 0.048968002 -0.04648118
-0.10159805 0.0031662832 0.1288108 0.16816846 -0.010801924 0.06925764 0.1270082 0.012766647
-0.008649847 0.06799524 0.055035084 0.14327209 0.21993984 -0.010274601 -0.042415496 0.05886392
-0.05366099 0.033335976 -0.0019120843 0.10870683 0.07820841 0.152855 0.06213343 -0.021581205
0.13087042 -0.011763139 0.024318693 0.12312307 -0.11503982 -0.080489025 -0.075773075 -0.15307523
-0.14578448 -0.046866138 -0.054593783 -0.085574195 -0.16204795 0.16372356 -0.0579737 0.036746923
0.057243578 -0.08230583 -0.1322195 -0.08291225 -0.2831011 -0.23600428 -0.09924928 -0.018220726
0.07141722 -0.02382403 -0.065318175 0.065751106 0.00012733036 -0.0344074 -0.0016573857 0.16419458
0.10137911 0.08452267 0.023814224 -0.0077551957 0.061434437 0.11260193 -0.107528515 0.02971671
0.09534153 -0.039169356 0.0006262366 0.09055023 -0.10803416 -0.021325547 -0.049824614 -0.2732542
-0.26680857 -0.13578688 -0.24371167 -0.3697979 -0.09246442 -0.24438807 -0.16620864 0.020810205
-0.20122735 -0.24424134 -0.16111152 -0.6101778 -0.6024887 -0.20769404 -0.5621886 -0.58566874
0.01776451 -0.39582002 -0.4411756 0.09965978 0.070172586 0.16824976 -0.032914657 -0.08840131
0.06526532 -0.104003675 -0.10977785 0.027816692 0.10447237 0.06979505 0.02380843 0.09945571

bias f4 [64]
00000000: 1f78 0dbe cba6 f83c 45e4 b2bd c29c 6f3d
00000010: cb51 1b3e bcf8 1bbe 7874 ac3d 33ae 943d
00000020: cb2f 113e 5be1 8bbe 3d11 f83d 46df babd
00000030: b736 ea3d acf1 58bd 933e b2bd 8b3d 753e
00000040: 0845 21be 436b 2fbe 3356 8cbd a75a 82bc
00000050: d3da 233d 60a1 aa3d df2f a03c b324 91bc
00000060: 3c4a 08bd bc05 c33d 5aac 3dbe 1942 67bd
00000070: 887f 15be aee2 f43d 9aaa 0bbc 5c16 3a3e
00000080: 5095 44bc ce10 023e 8962 b8bd d9c2 1dbe
00000090: 54ce f23d 2733 95bd e0f7 ea3c 9f7c 4fbd
000000a0: 4768 28be 0560 443e 5cfe 6bbd c97e c9bd
000000b0: 5cee 2d3e 4e47 7b3e ca04 053e 7895 cabb
000000c0: 83e5 d13b d18f ff3b 1c41 3fbe 2242 80bd
000000d0: d9ea 07bd 315f aebd 9dce 78bd 91ef 68bd
000000e0: 25f0 f53d ca3f c8bd 3673 09be 4d86 f13d
000000f0: 5818 bd3d ce6f 69be 2216 d43d d837 9dbd
-0.13815354 0.03035297 -0.08734945 0.058499105 0.1516792 -0.15231603 0.08420652 0.07259788
0.14178388 -0.2732037 0.12112663 -0.09124617 0.11436217 -0.05296485 -0.08703341 0.23949258
-0.1574899 -0.17130761 -0.06852379 -0.015912367 0.04000361 0.08331561 0.019554077 -0.017717695
-0.03327392 0.09522578 -0.18522778 -0.05645952 -0.1459943 0.11957298 -0.008524561 0.18172592
-0.0119984895 0.12701723 -0.09003169 -0.1540636 0.1185576 -0.07285147 0.02868265 -0.050655957
-0.16446029 0.19177254 -0.057615623 -0.098386355 0.16985458 0.2453892 0.12990108 -0.006182369
0.0064055338 0.0077991267 -0.18677181 -0.06262614 -0.033182953 -0.0851425 -0.060743917 -0.056869093
0.120086946 -0.09777792 -0.13422856 0.11793194 0.09233159 -0.22796556 0.10355784 -0.07676667

weight f4 [64, 64, 3, 3]
00000000: 30e2 53bd 487a 82bd 07aa d7bc fcae 663d
00000010: 7d87 b7bc 2f1d e63d b8f0 303d f8c1 40bd
00000020: dbe3 f73d 17c3 dabd 1289 8e3d a72b 95bc
00000030: 6347 36be 7ce5 a63d 1fd5 ea3c fa62 14be
00000040: 14e9 e53c 2680 51bd 83b4 b03d e6f0 f33d
00000050: a9fa 213e 8b58 b3bc 8004 263d ee9e dd3c
00000060: fe0c e2bd 5e1f 13bd f466 11bd 1392 7fbe
00000070: 4354 9cbd 58d2 0fbe 88d1 a8be e026 e2bd
00000080: 0797 883d 4863 26bc b405 01be a5aa 2cbb
00000090: b078 07be 3e3f a13c cf9f 12bd a7a1 51be
000000a0: ea91 c1bd 87f9 5d3d feab db3c 6f7e 163e
000000b0: c492 bd3d ca74 873d 053f 0c3e bb5c ed3d
000000c0: 26c4 2dbb b8d1 5a3d 67ef b83d 127f a9bd
000000d0: 9267 5f3d e394 e3ba d8b2 213d 184a 4f3c
000000e0: 88f4 b3be 06a4 023d cffc f43c ea7d e3bd
000000f0: 4ab9 183e 1a2d e73d c8c5 77ba 3e66 1abe
00000100: 1a76 f63d df40 09be 66a1 20be 24b3 9b3d
00000110: 974e d9bd d0ef 74be f43a 633d d93b 26bd
00000120: 5d92 c6bd 030d b23d d1a0 7d3d bfc6 a53c
00000130: b87e 433d c540 b0bc 0534 04bd 4bdb 48bd
00000140: bc18 19bd c2c2 edbd 4415 a83d 39dd 3c3e
00000150: e7ec 1cbe d90b 1abc 053f 183e 7cf6 40be
00000160: da33 0cbd 2224 24bd 8928 9f3e c9f4 443d
00000170: 2863 30be a836 923e 1eab 3bbc 58a2 16be
00000180: 1869 7f3e 8528 f1bd 9537 e4bd a090 973d
00000190: 06ad 553d 73e9 113d 2f8d b73d 50be 853c
000001a0: 6b8a 363d af72 563d b5d3 073d 0d1d cabb
000001b0: bf77 afbe 145a 763e 4bc8 663e 8082 86be
000001c0: f7e0 5d3d 11f7 1a3e 9036 45be c7b4 fc3d
000001d0: 5783 603e 61dc 45be 4d79 cfbc 481f 2abd
000001e0: a08a 3c3d aa3b a93d 1111 8c3d 8899 f8bd
000001f0: a79c a6bc 9fb5 95bd 8f5f cabb 2ab1 1fbd
00000200: 9776 cf3c 9686 b4bc 1d0b 113c 3707 a9bc
00000210: daa2 2bbd 7333 0ebd c0ad 49bd f8ef 30be
00000220: 8721 343c 30ff c03d 796b b1bc 5dbc e53d
00000230: af49 d73d 49f1 f8bc f702 3a3e 0080 323e
00000240: 7fa0 07bd 6964 fb3c 1324 463e c830 21be
00000250: 9b19 afbc 75f3 193d 908f cfbd fed6 703e
00000260: 4f09 57bd 0a1b fbbd 91bf 353d 1d11 aa3d
00000270: d850 dfbd 71ca 903c ff1f acbd 0730 46bd
00000280: 33ea fa3c 9f7f f7bd 6e01 c83c df11 063c
00000290: f03c 4c3b c071 36bb daca df3c 0b5d 643c
000002a0: d0f5 683b f3a1 213d eff0 c13b 6527 57bd
000002b0: a48a 0f3e 4e36 b73d 35dc 27bd b40e efbc
000002c0: cbca ccbc f468 1ebe 3203 5fbd a0ec e7bd
000002d0: e54f c2bd 570e e33c b74f 853d 49a0 68bb
000002e0: 3e05 67bd 3676 8ebc 2072 6d3b 3df1 043e
000002f0: 93f0 0c3e eaca babd ca43 973c d7c2 de3b
00000300: 5973 68bc 8f2c 3bbd 3fa2 2d3d 4852 243d
00000310: 2d8c 8c3c 7d8c 93bd abb7 db3b 5e91 06bd
00000320: 5fe4 3b3d f522 dd3b a0b1 ee3d bd16 92bc
00000330: ca2c a0bd d0a2 a33d b37f 133d 801d 4d3e
00000340: d8e0 013d dc92 e4bb 1ac1 0e3d 7a63 70bd
00000350: ed42 cc3d 224b 93bc c77f 0dbe 8307 753d
00000360: 2c42 eb3d 1506 c33c 4fb0 81bc fbcf 7fbd
00000370: 1c6c 3f3c 1833 343d 006b 9a3c 61a7 b7bd
00000380: ef50 14be 8210 e53d c64a e03d b915 e4bc
00000390: dd3d c23d 6ff6 8a3c b3f7 9f3d e07b 4d3d
000003a0: 0461 28bc e014 c6bb 9b89 823b 664e cd3d
000003b0: fbde 343e ec38 ae3d 0aee a13c fc6d 883d
000003c0: 9b65 213e 7fdd 173c c4d4 f53b c296 77bc
000003d0: 1b73 d6bc 134a 93bc 923c 513b 1760 16bd
000003e0: a24a fcbc 0802 f93b 7d91 113c 4109 e43c
000003f0: ec12 b6bd 063c 5bbd e687 84bb 5566 95bd
-0.05172938 -0.063709795 -0.026326193 0.05631922 -0.022403473 0.11236035 0.043198317 -0.047059983
0.12104007 -0.10681742 0.06959738 -0.018209292 -0.1780067 0.081492394 0.028666077 -0.14490882
0.028065242 -0.051147602 0.0862818 0.11911182 0.15818276 -0.021892807 0.040531635 0.027053323
-0.11037634 -0.035918586 -0.035498574 -0.24958067 -0.07633259 -0.14045084 -0.3297236 -0.11042571
0.06669431 -0.010155506 -0.12599832 -0.002634683 -0.13229632 0.019683477 -0.035796937 -0.20471822
-0.09451659 0.054193046 0.02681541 0.14696668 0.09256509 0.066140726 0.13695915 0.115899526
-0.0026514619 0.05342266 0.090300374 -0.0827619 0.05454213 -0.0017363097 0.0394772 0.012651943
-0.351475 0.031894706 0.029905705 -0.111080006 0.14914432 0.11287899 -0.0009451774 -0.15078065
0.12034245 -0.13403653 -0.15686569 0.07602528 -0.10610693 -0.23919606 0.055476144 -0.04058442
-0.09695885 0.08693888 0.061920945 0.020236371 0.04772827 -0.02151526 -0.032276172 -0.04903726
-0.037377104 -0.11609413 0.08207181 0.18443765 -0.15324746 -0.009402239 0.1486779 -0.18844026
-0.034229137 -0.04007352 0.31085613 0.048085008 -0.17225325 0.28557324 -0.011454372 -0.14710367
0.24942434 -0.117753066 -0.11143414 0.07400632 0.05216696 0.035623025 0.089624755 0.0163261
0.0445656 0.052355465 0.033160884 -0.006168014 -0.34271047 0.240578 0.22537343 -0.2627144
0.05416962 0.15133311 -0.19259095 0.12339168 0.21925102 -0.19322349 -0.025326395 -0.04153374
0.04603064 0.08263333 0.06839193 -0.12138659 -0.02033837 -0.07310032 -0.0061759423 -0.038987316
0.025325103 -0.022036832 0.008852747 -0.020633323 -0.041903354 -0.034717035 -0.049237967 -0.17279041
0.010994322 0.09423673 -0.021657692 0.11217568 0.10512101 -0.030388491 0.18165193 0.1743164
-0.033112045 0.030687528 0.19349699 -0.15741265 -0.021374514 0.037585694 -0.10134804 0.23519513
-0.05249911 -0.12261017 0.044372145 0.08304045 -0.109040916 0.017674657 -0.0840454 -0.048385646
0.030629253 -0.12084889 0.024414744 0.008182972 0.0031164251 -0.0027838796 0.027318407 0.013938199
0.0035546906 0.039461087 0.005918614 -0.052527804 0.14017731 0.08945905 -0.04098149 -0.029181816
-0.024999043 -0.15469724 -0.054446407 -0.113244295 -0.09487895 0.027716799 0.06509345 -0.0035495928
-0.056401484 -0.017390352 0.0036231354 0.1298265 0.13763647 -0.09120734 0.018464942 0.006798129
-0.014187657 -0.04569679 0.042391058 0.040117532 0.017156685 -0.072045304 0.0067052445 -0.032853477
0.04587209 0.006748552 0.11654973 -0.017833108 -0.07821043 0.079900384 0.036010455 0.20030785
0.03170857 -0.006975515 0.034852125 -0.05868862 0.099737026 -0.017980162 -0.13818274 0.059821617
0.11487231 0.023806611 -0.01583114 -0.062454205 0.01168349 0.04399404 0.01884985 -0.08967472
-0.14483999 0.11184789 0.10951762 -0.02784239 0.09484456 0.016963212 0.07810917 0.050166965
-0.010277037 -0.006044969 0.003983689 0.10024719 0.17663185 0.08506951 0.019766826 0.06661603
0.15761416 0.009269117 0.0075021703 -0.015111627 -0.026177933 -0.017979657 0.0031926972 -0.036712732
-0.030797306 0.007599119 0.008884785 0.027836444 -0.08890328 -0.05352404 -0.0040445207 -0.07294909

bias f4 [64]
00000000: 59dd de3d 063f dc3c db5b 223e 5cff 05bd
00000010: 25ac 9a3d 33e9 b4bd 061c 52bc b3fd 2cbe
00000020: f742 e93d 1cf1 29bc 4fa7 93bc 618a 023e
00000030: 4672 263d 5337 783d 15cc 293c 8589 81bc
00000040: 1f52 e23d f678 373d 4809 073c 7429 d73d
00000050: 2300 89bb 8fb7 083b 36f7 49bd 7e2d a63d
00000060: bc1d 903c 9fc1 bc3d 8385 153d 578f d43b
00000070: 2948 95bd 0045 58bd d817 36bd 99ca 2b3c
00000080: 0e9a aabb 60f6 16bd 5ec7 a73c d45c be3c
00000090: 19d3 1abd 6c9a 09bd 2f3d a03d be41 47bd
000000a0: 50b7 67bd 357d edbd 813f 243e e747 dcbd
000000b0: fa48 b83c 29c8 543d 3f1b 393c 536d 6bbc
000000c0: 97ef cbbb 4660 f83d 2552 483e 487a 1c3e
000000d0: 37ec a0bc c3be aebd 0c87 80bd 2821 4ebd
000000e0: d7ab 85bd b12f c23d 04fa 00bd 5060 cf3b
000000f0: 9314 babc fdd0 113e e141 413e 7452 9eba
0.108820625 0.02688552 0.15855353 -0.032714233 0.07552365 -0.08833542 -0.012824064 -0.16893654
0.11389726 -0.010372426 -0.018024115 0.127481 0.040636323 0.060599636 0.010363598 -0.015812645
0.110508196 0.04479309 0.008241959 0.105059534 -0.0041809245 0.0020861363 -0.049308024 0.08114146
0.017592303 0.09216618 0.03650428 0.006486814 -0.07289154 -0.05280018 -0.044456333 0.010485315
-0.005206353 -0.036856055 0.020480808 0.023237623 -0.037798975 -0.033594534 0.0782417 -0.04864668
-0.056571305 -0.11596147 0.1603985 -0.10755902 0.022495735 0.0519487 0.011298 -0.014369327
-0.0062236297 0.12127738 0.19562586 0.15281022 -0.019643886 -0.08532479 -0.06275758 -0.05032459
-0.065269165 0.09481753 -0.031488433 0.00632862 -0.022714889 0.14239879 0.18872787 -0.0012079016

weight f4 [10, 64]
00000000: fc0b 94be 1de6 783e d34f fbbd c4c7 8c3c
00000010: ae83 933c d113 3c3d ce60 81bd 9e04 193e
00000020: 007a b13d b81d 913c 4c1b 6abd 195c 0a3e
00000030: 0351 043e c442 263e c268 b93d 2673 63bd
00000040: d73d d4bd 98e3 c7bd 1b06 07be 28cd 103d
00000050: 0bda 53bd 29ac 4dbd 845d 4ebe b3d5 86bd
00000060: 66d4 aabe 723b 623d da38 0e3d 6c4e 0d3e
00000070: 77dd 93bb ae06 963c fe02 12be 0470 72bc
00000080: 2b5c 10bd e284 e1bd d44d d4bd 4d7a 08bc
00000090: f46e c33d af4d 27be afe4 483e 5227 a6bd
000000a0: db78 bc3d b855 adbd 7ab8 4d3e 9337 7ebe
000000b0: 45bd 4abe 910d 193e d46c b43c f226 40be
000000c0: 9199 83bd b75a 19bc ceda 783e ec52 2abe
000000d0: 0bec d8bb 7b6a afba ebd5 3fbc fa81 b8bd
000000e0: f432 283e 015b 4c3e 7cc6 b4bd 46fe 2d3e
000000f0: fe93 9cbc 11b2 453c 9106 17be 4fc3 8ebd
00000100: 7e2f 53be 2e31 8cbd 2d33 cc3d a134 e2bd
00000110: c5db 0f3d 30af 303e 35c4 e03c 0a4d 3cbf
00000120: 5d13 19be c61f ba3d 9220 f73d 050f b43d
00000130: 6064 3dbe 0be8 96be 3f46 043e 7690 91bd
00000140: 3201 acbd 17a2 4cbe 322d dcbd f125 7bbc
00000150: b194 34bd 9fd7 c83c 227c b13e 028a 0dbe
00000160: 33a8 06bf 0083 a33d 8a61 0bbe f61a 8fbe
00000170: a53a b4bd 34c6 f8bc 67f5 f23c 7156 dbbc
00000180: ffbe d9ba 341d d13d 4600 15bc ed56 98be
00000190: ae3f 753e 52c6 38be a6bb 953e 3c8a 783d
000001a0: e1cc c3bd 46f7 07bd 9bbc 22be ecea 81bc
000001b0: e833 ecbd 9563 1d3d 0805 c63e b85d 36bd
000001c0: bcfb 0a3e d494 b03d de47 833d 98b6 8bbd
000001d0: 9235 783d 21d6 d33d c93c bc3d 4158 823d
000001e0: 1ffb 1cbe 726b 423e e68a f63d 04cb 8cbe
000001f0: 48b4 d6bd aab1 6c3d 713b b8be 55d8 a3bc
00000200: 47fd 61be d911 d9bd 39c8 063e 611d 5abd
00000210: d9c2 1fbc dac9 f43c 11ad 13be c6c9 21bf
00000220: 2d9c 433e a5fd 5cbe a10b c4bc d1e2 243e
00000230: 3fd5 453e 44db 57bd 2c55 08bc 67a7 823d
00000240: e55f af3c b603 e73d 6126 eb3b a5b0 c4bd
00000250: 38a7 87bd 38a3 e4bd 15dd 55bd afc0 353e
00000260: a636 273d 5d47 0d3e 9027 c13d 1631 393e
00000270: b9d5 4abd dd7b 99bd e755 7a3e ecb9 cb3d
00000280: 7766 c23c df8f 9b3d 545b e63d 79d8 a5be
00000290: dba6 ff3d e851 74bd 6e33 1e3e 78de b73d
000002a0: bf15 453d d0b4 84be cdd0 c63b 75a8 143e
000002b0: 2b9f 7abd 7caa 5abb d3cf 64be 6731 033e
000002c0: e578 9c3d bcfb 0bbe d84b b33e ff95 86bc
000002d0: 4175 97be f939 e1bd 0f69 6e3d 73f8 a03c
000002e0: 4e60 c5bd 76fe a1be 833a 183d 4198 7f3e
000002f0: 995f a33d 53f6 d23d 849e a03c 1f0e dcbe
00000300: ecb4 5fbd db68 19be ed53 9dbe a1ec 54bd
00000310: f8cc c63d 8027 b53c 73ba 12be 9647 833e
00000320: b391 2abd 0d22 143e 100b 0dbc fbb4 e0bd
00000330: 7f89 3e3e 6c60 a13d 60d7 013e 39e9 34bd
00000340: 8715 993d 2a1d 6a3d 6c0a a7ba e3a6 a8be
00000350: 3141 cabc a6dc 60bd e379 613d 2d7c e1bb
00000360: 6cf7 27bf 2227 aa3c 57f6 d8bd 6d11 a9bc
00000370: 407b cfbd 2348 30bd 9547 7abe 396c 9ebc
00000380: 31ff 393d 694a 6c3d 8d41 dbbd 4aa7 abbd
00000390: 722e 8d3c 8ba6 cc3d b322 48be 18a7 54bd
000003a0: 7180 f3bc 7c39 dbbb 506a e03c 9262 1c3e
000003b0: d88a 833d 40ce 22be e18f 42be aa57 df3d
000003c0: 023a abbc 77bd 0c3e 9382 23bd fb9e 4ebd
000003d0: b605 ee3d 9573 67be dae2 84bd fa7b 2abd
000003e0: 0266 253e 8cd6 ccbd c8b3 8a3d 3dac a5be
000003f0: 46e1 e3bd 8f8f 4ebc 0864 7f3e 1917 8f3c
-0.28915393 0.24306531 -0.12271085 0.0171851 0.018007126 0.045917336 -0.06317292 0.14943168
0.08665848 0.017714366 -0.05715494 0.13511695 0.12921529 0.16236407 0.09053184 -0.055529736
-0.103633575 -0.09760207 -0.13185923 0.035351902 -0.051721614 -0.050213013 -0.20152861 -0.06583729
-0.33365172 0.055232473 0.034722187 0.13799447 -0.0045124847 0.018313732 -0.14258954 -0.014797214
-0.03524415 -0.110116735 -0.10366407 -0.00832994 0.09542647 -0.16338228 0.19618486 -0.081129685
0.09202739 -0.08463615 0.20089903 -0.24825887 -0.19798763 0.14946581 0.02202455 -0.18764856
-0.06425775 -0.009360007 0.24302217 -0.16633195 -0.0066199354 -0.0013383174 -0.011708717 -0.09009166
0.16425687 0.1995659 -0.088269204 0.16991529 -0.019113537 0.01206638 -0.14748599 -0.06970846
-0.20623586 -0.06845318 0.099706985 -0.110451944 0.035121698 0.17254329 0.027437309 -0.7355505
-0.14948793 0.090880916 0.12066759 0.08791927 -0.18495321 -0.2947391 0.12917422 -0.07107632
-0.083986655 -0.19983707 -0.10750808 -0.01532887 -0.044087116 0.024516879 0.34665018 -0.13822177
-0.526004 0.07983971 -0.13611427 -0.27950257 -0.08800248 -0.030367948 0.029658033 -0.026774617
-0.0016612707 0.10210648 -0.0090943035 -0.2975382 0.23950073 -0.18044403 0.29244727 0.060678706
-0.09560562 -0.033194803 -0.1589226 -0.01585909 -0.11533338 0.038425047 0.38675714 -0.04452297
0.13572592 0.08622137 0.06410192 -0.06821936 0.060597964 0.10343576 0.09191281 0.06364489
-0.1533017 0.189863 0.120382115 -0.2749864 -0.10483605 0.05778662 -0.3598285 -0.020000616
-0.22069274 -0.10599107 0.13162316 -0.053250674 -0.009751045 0.029881407 -0.14421488 -0.63198507
0.19102545 -0.21581133 -0.023931326 0.16102149 0.19319628 -0.052699342 -0.008321088 0.06379586
0.02140803 0.11280005 0.007176206 -0.09604005 -0.06623691 -0.11163944 -0.052212793 0.17749284
0.0408236 0.13796754 0.09431374 0.18085131 -0.049520228 -0.07494328 0.24446832 0.09947571
0.0237305 0.075958006 0.11247888 -0.32391718 0.12482997 -0.059648424 0.15449306 0.089779794
0.04811644 -0.259192 0.0060673715 0.14517386 -0.06118695 -0.0033365777 -0.22344904 0.12811814
0.07640246 -0.13670248 0.35018802 -0.016428946 -0.29581645 -0.109973855 0.05820566 0.01964972
-0.09637509 -0.3163945 0.037165176 0.24960424 0.07977218 0.10300889 0.019606836 -0.42979524
-0.0546159 -0.14981405 -0.30728093 -0.05198348 0.097070634 0.022113562 -0.14328937 0.25640553
-0.041642856 0.14466114 -0.008608595 -0.10972019 0.18607138 0.07879719 0.12679815 -0.04416773
0.07474809 0.05715672 -0.0012744195 -0.32939824 -0.024689289 -0.054897927 0.05504788 -0.006881258
-0.6561191 0.020770613 -0.105938606 -0.020638192 -0.1013093 -0.043037545 -0.24441369 -0.019338714
0.045409385 0.05768815 -0.10705862 -0.08381517 0.01723406 0.09992703 -0.19544487 -0.051917166
-0.029724332 -0.0066902023 0.027394444 0.15271977 0.06422967 -0.1589899 -0.19000198 0.109053925
-0.020901684 0.1374415 -0.039919447 -0.050444584 0.11622183 -0.22602685 -0.06488581 -0.04162214
0.16152194 -0.10001859 0.06772572 -0.3235797 -0.11126952 -0.012607469 0.24940503 0.017467069

bias f4 [10]
00000000: 9b56 0c3c 2493 bf3d f55c e33d 4b6d 423d
00000010: 7c26 2d3d 4727 2bbe 6e9e 643e a28c 3b3d
00000020: 3adb 563e 46da aebc
0.00856557 0.09354237 0.111017145 0.04746751 0.04227303 -0.16714202 0.22326061 0.045788415
0.20982066 -0.021344315
