model/fc_model.pt (torch_old, 475315 bytes, 6 tensors)

weight f4 [128, 784]
000000 b8 35 d2 3c 88 dc 2f 3c 4a bc 91 bc 1c e4 4f bc
       0.02566038 0.010733731 -0.017789979 -0.012688663
000010 17 f6 df bb 46 13 01 3d 85 e5 8f bc eb 77 b7 3b
       -0.006834756 0.03151252 -0.017565498 0.005599012
000020 5e 03 85 3c f7 61 fa 3c 41 30 47 be 15 44 11 be
       0.016236957 0.030564291 -0.19452001 -0.14186127
000030 90 4a 02 bd 98 9e f8 bc a3 59 a7 3d aa 08 aa 3c
       -0.03180939 -0.03034906 0.08171394 0.020756084
000040 af 7a 20 bd b6 e5 53 be 78 0f 1b bd aa 12 c0 3d
       -0.0391795 -0.20693097 -0.03785655 0.0937856
000050 f7 aa 2d 3d de 86 55 bc af eb a5 bc ed 7e 0b 3d
       0.042399373 -0.013032643 -0.020253984 0.034056593
000060 09 64 30 3c a3 ff 6d 3c 1a 44 93 ba a1 86 0f 3d
       0.010766038 0.014526281 -0.0011235506 0.0350405
000070 0c 92 37 3c c1 04 31 bb 8b 18 a9 bb 4b c6 0a bd
       0.011204254 -0.002701089 -0.0051603965 -0.033880513
000080 b1 0b 12 bd 32 af bd bd 12 d2 0d be e1 d2 86 bd
       -0.03565568 -0.092619315 -0.13849667 -0.06583191
000090 2d 92 22 be a7 e6 bc be 7c e7 23 be 02 a6 3e bd
       -0.15876074 -0.36894724 -0.16006273 -0.046545036
0000a0 aa f5 6c bb c2 41 e8 3c c5 c3 eb 3c 9b 3d 00 3e
       -0.003615717 0.028351668 0.028779874 0.125235
0000b0 f7 35 53 3d da b3 d0 bd 40 37 48 be ff 29 47 be
       0.051565137 -0.10190554 -0.19552326 -0.19449614
0000c0 3b 89 2e 3d 13 07 91 3d 1b 65 a0 3c c3 fa a1 bc
       0.042611342 0.070814274 0.01957946 -0.019772893
0000d0 a3 30 8f 3c 37 95 44 3d 40 35 e4 bc fd d4 63 bb
       0.017479246 0.047993865 -0.027857423 -0.0034764402
0000e0 74 40 be bc 7c b5 e8 3c a8 77 2d bc dc db 01 3c
       -0.023224093 0.028406851 -0.01058761 0.007925954
0000f0 fc d2 12 3b 3e c0 2a bd 03 98 3d be c3 11 7b 3d
       0.0022403589 -0.041687243 -0.18515019 0.061296236
000100 51 40 69 bb f5 9e 97 be 70 8b 36 be 54 b2 3f be
       -0.0035591314 -0.29613462 -0.17826629 -0.1872037
000110 0d fd e8 bb ec 28 bc bd 35 2d 84 be 9a 5a 28 bd
       -0.007110244 -0.09187493 -0.2581574 -0.04110203
000120 d2 83 60 be 7f cc 3a be f3 87 c6 bd 84 3f 8a bd
       -0.21925285 -0.18242072 -0.09693899 -0.06750396
000130 03 06 45 bd 23 fa 26 3d 4f 19 1e 3e 09 5e 50 3e
       -0.048101436 0.040765893 0.15439342 0.20348372
000140 b9 6f a2 3d 92 90 1c 3d 4c 8b db bc 6f 48 8c bc
       0.07931466 0.03822381 -0.02679982 -0.017124383
000150 fe 10 74 3c 05 de 62 bb 62 ee 6f 3d 7f ab 87 3d
       0.014896629 -0.0034617197 0.05857695 0.06624507
000160 5a 23 a9 bb b5 3b 9b bd 79 aa e5 bc fb 6a 15 bd
       -0.005161685 -0.075797476 -0.02803539 -0.036478978
000170 03 a8 69 3d e2 8c 7e 3c 43 54 ea bd 74 1f f0 bd
       0.057044994 0.015536519 -0.11441853 -0.11724749
000180 b7 a6 c4 bd 86 ac 81 bd 18 19 5a be a1 28 b7 bd
       -0.09602111 -0.06331734 -0.21298635 -0.08943296
000190 82 b3 64 bd 22 d5 44 be df 68 13 be 8a d3 1a 3e
       -0.055835254 -0.19221929 -0.14395474 0.15119758
0001a0 56 04 24 bd d2 ee 59 3d 98 6c e6 3d 01 48 66 3e
       -0.040043198 0.053206272 0.11251181 0.22488405
0001b0 6c 76 58 3e bc 9b 9b 3d a5 75 41 3c 87 2a de ba
       0.21138924 0.07598063 0.011807834 -0.001694993
0001c0 ff 0c 9a 3c c2 b6 88 bc 82 d8 2f 3d a1 a9 e8 3d
       0.018805025 -0.016688708 0.042931087 0.11360479
0001d0 2a ee 47 3d b2 7b 5d 3c 6e c6 d1 bc 9b 16 5e 3d
       0.048811115 0.013518261 -0.025607314 0.054220777
0001e0 d8 76 75 3e 73 f9 14 3e bd d2 44 bd b1 1c bd 3d
       0.23971117 0.14548282 -0.04805254 0.09233988
0001f0 0f 0c 15 3e 41 2d bb bd 8e d2 9e bd 3e 27 1b 3d
       0.14555381 -0.09139491 -0.07755004 0.03787922
000200 61 9b 38 3e 9b 51 17 be a1 18 8d bd f7 64 95 3d
       0.18028022 -0.14777224 -0.06889463 0.07294648
000210 68 ae b7 3b 6f 07 27 3d 08 84 b7 3c ea 00 46 3e
       0.0056055076 0.040778574 0.022401825 0.19336286
000220 a1 3d 7d 3e c5 bb e4 3d 1d 02 5a 3d 75 04 b0 3c
       0.24730541 0.11168627 0.05322467 0.0214865
000230 a3 26 cf bb cb 25 15 3c 62 3a 9d 3c 19 3a c8 bb
       -0.0063217445 0.009103249 0.019192878 -0.0061104414
000240 cf 64 fc 3d ef 18 11 be 99 02 21 3d 48 d3 96 3d
       0.12323915 -0.14169668 0.039309118 0.073645175
000250 22 36 f9 3b 16 74 b9 bd 48 2c 96 bd 8e 98 ae bd
       0.00760533 -0.09055345 -0.07332665 -0.08525191
000260 00 ac f8 3c 6f d1 16 bd ca 85 8d bd 39 79 f6 bc
       0.030355453 -0.036820825 -0.06910284 -0.0300871
000270 b1 57 c7 3c 85 44 19 3d 7c 57 e1 bd 9d f8 29 3c
       0.024333807 0.03741886 -0.110030144 0.010374215
000280 78 6b 7f bd ac 58 08 bd c9 70 cb 3c 1a cf d4 3d
       -0.06235835 -0.03328769 0.024834054 0.10391064
000290 ba ef 6b 3e 13 ec ed 3d fd c7 b5 3d 96 89 39 3d
       0.23040667 0.11617293 0.08876035 0.045297228
0002a0 0e a8 5a 3d 3c 49 a5 3b 19 81 ac 3a 61 bd 88 3d
       0.053382926 0.0050441306 0.0013161033 0.06676746
0002b0 1d 59 85 bc df 38 aa bc d6 7a cb 3d 01 ec 60 3e
       -0.016277844 -0.020779071 0.099355385 0.21965028
0002c0 ec 31 7a bc e4 10 34 be db ec 4d 3d 04 54 0f 3e
       -0.015270691 -0.17584568 0.05027471 0.13996893
0002d0 ad c7 f7 bc c6 a6 0c 3d ce aa 32 bd 72 f3 8a 3d
       -0.03024658 0.034338735 -0.043619923 0.06784715
0002e0 d0 f2 59 bc d4 f5 74 bd 3f 49 98 bd ee 88 f9 3c
       -0.01330252 -0.059804752 -0.074358456 0.030460801
0002f0 64 ab e6 bc 79 7f 32 3d 13 cb 0d 3e 2d 18 ca 3d
       -0.028157897 0.0435786 0.13846998 0.098678924
000300 75 7d a7 3e ae c6 10 3e ba a3 e2 3d f0 5c aa 3b
       0.32712904 0.1413829 0.110663846 0.0051990673
000310 41 ff 30 3d 3d a4 89 3c 1a 31 2d bb 1a 8e 94 3c
       0.04321218 0.016801948 -0.0026426972 0.018134166
000320 7e a2 bf bd 0d 8c ac bd 96 ba 21 3d 3d 5c 76 3d
       -0.09357165 -0.0842515 0.039484583 0.06014656
000330 8e d4 0a bc 10 d1 34 3c fc 58 0e be be ef 9b 3d
       -0.008473529 0.0110361725 -0.13901132 0.076140866
000340 3d 89 c4 3d 2c 4a cf 3d 35 10 bc bd ce 41 b7 bd
       0.095964886 0.10121569 -0.09182779 -0.08948098
000350 e9 ab 30 be 93 9e 5c be 37 4a 9d be 26 74 8c bd
       -0.17253079 -0.21544866 -0.30720684 -0.06858091
000360 77 05 ac 3c e6 96 83 3d 9e 38 b8 bd fa b3 3b 3d
       0.0209987 0.06425266 -0.08995174 0.045825936
000370 94 f3 34 3e b0 47 e6 3d c7 17 9c 3d 9c 66 88 3d
       0.17671043 0.11244142 0.07621723 0.06660196
000380 58 59 58 3d 5f e4 22 bc 3b a7 5d 3d 36 6a 9d 3c
       0.05281958 -0.009942143 0.05411456 0.019215684
000390 19 59 c4 bc 3a 7e 91 bd e0 a5 ac 3d c0 02 4a 3d
       -0.023968266 -0.07104154 0.08430076 0.04931903
0003a0 f8 b6 d5 3d 30 73 8d 3d bd b4 27 be 8c 1b 1e be
       0.10435289 0.06906736 -0.1637754 -0.15440196
0003b0 97 b5 25 bb c0 c9 3c 3d 2d 8b c2 bd 7b f6 8c 3c
       -0.0025285238 0.04609084 -0.09499202 0.017207375
0003c0 b2 e4 54 bd 38 c5 1a be 02 e9 8d be 4a 61 d3 bc
       -0.051975913 -0.15114295 -0.27716833 -0.025803227
0003d0 8a 5c b9 3d 8a 11 84 3d 36 66 ce bd 18 f5 1f bd
       0.090508536 0.06448658 -0.10078089 -0.0390521
0003e0 bb 51 bc 3d ef d8 c8 3d 22 3a b0 3d 3a c1 58 3d
       0.09195276 0.09807002 0.08604838 0.05291865
0003f0 eb 4e a5 3d 57 bf 1c 3c 22 4f f7 3c 3b 41 89 3d
       0.08071693 0.009567103 0.0301891 0.06701895

bias f4 [128]
000000 9e ef f4 3b 38 c7 3d bd 16 cd bc bc 0b a3 27 3d
       0.0074748537 -0.046332568 -0.023047011 0.040926974
000010 74 c6 8a 3c 89 db 8c 3c 8a 13 63 3d 27 e7 ad 3b
       0.016940333 0.017194526 0.055438556 0.0053070965
000020 fc 2a 9c 3b b8 b8 4c 3d 8d c3 38 bb 4a bf c7 3c
       0.0047658663 0.04998085 -0.002819273 0.024383206
000030 c1 e4 b7 3b c0 2c 0a bd 05 c6 f8 bc dc 7a 6a bc
       0.0056119864 -0.033734083 -0.03036786 -0.0143115185
000040 ae 32 30 bb d3 6a a2 3c b7 f2 12 bd a4 4a eb bc
       -0.0026885676 0.019826328 -0.035876002 -0.028722115
000050 e6 87 3c 3c cf 5a 64 bc 13 c5 74 bd 32 d4 de bc
       0.01150701 -0.013937666 -0.059758257 -0.027200792
000060 1a 41 6d bd b2 59 01 3c e3 a6 8c 39 f7 04 ce 3c
       -0.057923414 0.00789492 0.0002682722 0.025148852
000070 8c 65 39 3c 06 63 78 bc 07 c4 35 3c b0 99 c9 bd
       0.011315715 -0.015160328 0.0110941 -0.09843767
000080 89 0f f3 bb ef cb 88 bb 34 fa bb bc ef 4c a4 3d
       -0.0074176234 -0.0041747014 -0.022946455 0.080224864
000090 10 35 27 bc 78 04 94 bd 07 89 e7 bc 91 4b 88 3d
       -0.010205522 -0.07227415 -0.028263582 0.06655038
0000a0 28 a2 83 bb 97 bc 1c 3d e1 3a 8b bc 27 15 5b bd
       -0.0040171333 0.03826579 -0.01699585 -0.05348697
0000b0 2f 39 14 bd 5e ba 05 bd c6 4d 66 3c 6e 4e 44 bd
       -0.036187347 -0.032648437 0.014056629 -0.04792636
0000c0 57 bd 7e bd 7d 75 be bc 04 49 f6 bb 31 8d 8d 3d
       -0.062192287 -0.023249382 -0.0075160284 0.06911696
0000d0 97 d5 01 3d 1f 69 16 bd 5d b1 77 bb ff 0a 25 bc
       0.031697836 -0.036721345 -0.0037794926 -0.010073422
0000e0 ba 9d 9a bd bf 1f 74 3d 98 dc bb bb c3 7e 4d bd
       -0.07549615 0.059600588 -0.005733084 -0.050169718
0000f0 49 08 5d bd 7a ae 0b bd 10 77 a7 3c 4b f5 71 bd
       -0.05396298 -0.03410194 0.020442516 -0.05907182
000100 63 cd 57 bd 3d aa 86 bb 09 d6 4a 3c 94 31 10 bd
       -0.052686106 -0.0041096495 0.0123801315 -0.03520353
000110 68 69 02 bd 16 dd a6 bb d0 66 ac bb 5e 9e 03 bd
       -0.031838804 -0.0050922735 -0.0052612796 -0.032133453
000120 ba a1 20 bd 25 0b 06 bd 57 8b c0 bc 9b 83 bc 3c
       -0.039216734 -0.032725472 -0.023503942 0.023011973
000130 61 68 c3 3a 9d b5 b3 3d c4 9e 15 bd e7 42 93 3c
       0.0014908427 0.08774874 -0.036528364 0.017976237
000140 c8 5a 04 bd fd 64 cc bc e5 30 78 bd d4 be 43 bd
       -0.03231314 -0.024950499 -0.060593504 -0.04778941
000150 b7 1c 46 bd 55 89 57 3c 4e 7c d5 bc e3 88 1e bc
       -0.04836723 0.013155301 -0.02606025 -0.009676191
000160 ee a0 d7 bc 7b dc 3c bc 31 51 68 bc 72 4e 96 bd
       -0.026321854 -0.011527176 -0.014179514 -0.07339181
000170 30 51 6a 3d 57 19 85 bd cf f0 34 bd 21 ef 5e bc
       0.057206333 -0.06498974 -0.044174965 -0.013606817
000180 b7 fe 1f bd 62 46 8a bd fe ef 69 bd 52 9b e0 bc
       -0.039061274 -0.06751706 -0.05711364 -0.027417812
000190 37 85 5a 3d a4 52 b6 bd 11 03 88 bd e3 0f 3d 3c
       0.0533497 -0.08902481 -0.0664121 0.011539432
0001a0 53 36 52 bc 83 8e 33 bc 7a 7a 70 bc 4d e8 80 3d
       -0.012830335 -0.01095927 -0.014677638 0.06294308
0001b0 7b 8c 69 bd 4b 72 d3 bb fe 0e 25 bd 13 12 22 3c
       -0.05701874 -0.006452834 -0.0402975 0.009892005
0001c0 c3 88 26 bc 98 ff 82 bd 9f ae 08 bd 41 19 67 bd
       -0.0101644425 -0.06396407 -0.033369657 -0.05642057
0001d0 0f 6d e0 bc b4 49 22 bd 91 9a 02 3c 7e f4 a3 bd
       -0.027395753 -0.03962107 0.007971422 -0.080056176
0001e0 11 41 bc 3c 72 50 d5 3b 16 00 14 bd 64 35 7f bd
       0.022980245 0.006509834 -0.036132894 -0.062306777
0001f0 f0 99 40 bd 2d 6b 0c bd a3 f2 9d 3d 97 52 22 bd
       -0.047021806 -0.0342819 0.07712295 -0.039629545

weight f4 [128, 128]
000000 08 02 c3 bd 4f 4f 8e bd 19 48 b4 3d fa 1b 1d be
       -0.09521872 -0.06948721 0.08802814 -0.15342703
000010 54 6e 87 3e 85 a7 37 bd 84 8a 5f 3d a0 42 86 3d
       0.2645136 -0.044837493 0.05457546 0.065556765
000020 b1 fd 62 3d 42 d2 27 be f3 5a 15 3e c9 19 c7 3d
       0.05541772 -0.163888 0.14585476 0.09721715
000030 93 a0 eb bd 58 e1 3b 3d 6f 7f 1a 3d 36 e4 fc 3c
       -0.115052365 0.0458692 0.037719186 0.030870538
000040 b4 6f 80 3d d7 61 96 bd 50 fc f0 bd 89 f8 d6 bd
       0.06271306 -0.0734288 -0.11766875 -0.10496623
000050 fd 74 c8 bd e0 4c e0 bd 9e b1 49 be 81 d1 04 be
       -0.09787939 -0.10952163 -0.19696662 -0.12970544
000060 3e e5 b8 bb 2f 0f 0f 3e a7 b2 81 3c ae 03 5e 3e
       -0.005642562 0.13970636 0.015832258 0.21681091
000070 b6 44 dd 3d 4d ba 13 bc 50 29 1b 3e b7 2b 22 3e
       0.10804121 -0.009016586 0.15152478 0.15836988
000080 7c e1 89 be f4 92 e8 3d 46 b5 8d bd d2 ed 77 3d
       -0.26929843 0.11356154 -0.06919341 0.060529537
000090 52 25 76 bd e8 75 61 bd 44 20 2a bd 2c 44 b7 3d
       -0.060094185 -0.055044085 -0.041534677 0.0894855
0000a0 86 36 f3 3c 7f 36 72 bd f9 25 1f 3e 10 ed 10 bd
       0.029689085 -0.059134003 0.15541829 -0.03538233
0000b0 7c b6 ea 3d d4 9b 30 3b c9 f3 0e 3a 31 5a 84 be
       0.114605874 0.002694835 0.0005453197 -0.2585006
0000c0 47 cd c4 bc 92 f0 2b be 82 25 a6 3c 40 76 2c be
       -0.024023665 -0.16790989 0.020281557 -0.16841984
0000d0 de 95 dd bd b7 82 f3 bd 34 e9 8e bd 84 85 5c bd
       -0.108196005 -0.11890166 -0.06978074 -0.053838268
0000e0 e5 37 ac bd 5b 0c 21 3e 79 5b 08 3e 68 ec 85 3d
       -0.084090985 0.1572737 0.13316144 0.065392315
0000f0 b1 d9 11 3e 24 72 b2 bd 4b 63 1a be 49 d2 23 3d
       0.14243199 -0.08713177 -0.1507694 0.039995465
000100 ab ed 5f 3d 2e c9 d3 3c 13 49 23 be f0 9e 23 3d
       0.054670017 0.025852766 -0.15945844 0.039946496
000110 a0 b7 0c 3d 16 7b df 3d 45 07 af 3d 29 b6 24 bc
       0.034354806 0.10912149 0.085463084 -0.010053196
000120 68 04 f8 3d 05 3e 78 3c 96 86 23 be a7 e4 98 bb
       0.121102154 0.015151505 -0.15969309 -0.0046659294
000130 40 8e e8 3c e6 79 12 bd 60 97 d1 bd 44 e3 bb 3d
       0.028388143 -0.035760783 -0.102339506 0.09174207
000140 52 d6 a3 3d 43 40 89 bd 8a e9 61 be c6 48 1f be
       0.07999863 -0.0670171 -0.22061744 -0.15555105
000150 32 5d 4d 3d 11 bc 06 3e 54 54 9d 3d 09 72 0d 3d
       0.050137706 0.13157679 0.076821 0.03453258
000160 ac dd d2 bc 47 b3 43 be f4 42 43 3d 10 cb 8d 3d
       -0.025740467 -0.19111358 0.047671273 0.06923497
000170 91 75 93 3d 5b 2f 91 bc 4d e9 9f 3d ae b6 b3 3d
       0.072001584 -0.017722776 0.078081705 0.08775078
000180 a2 36 f1 3d 94 4b 09 3e 18 0b 93 bd ca 23 98 3d
       0.117779985 0.13407737 -0.0717985 0.07428701
000190 93 cc 4a bd f7 2f 36 3d 42 29 e3 bd ac 5b 4c 3d
       -0.049511503 0.044479337 -0.11091854 0.049892113
0001a0 2f f8 cb bb 6e 2a 96 bd 0b 6f 25 3d 16 3c 46 bd
       -0.006224654 -0.073323116 0.040389102 -0.048397146
0001b0 43 43 4c be 9c 0e c6 bd 2f ff a6 3d 09 c3 25 bb
       -0.19947533 -0.09670755 0.08154141 -0.0025293252
0001c0 e8 62 35 3d c7 0b b8 3d 55 b9 8a bd 71 7f 1c bd
       0.044283777 0.08986621 -0.067736305 -0.038207475
0001d0 cb 03 1f 3e 73 1c 7a 3d e4 ee 7c 3d bd e1 be bd
       0.1552879 0.061062288 0.06175126 -0.093204
0001e0 e0 97 e8 3d 1a be 7d 3d 62 47 88 bd 03 29 b1 bd
       0.11357093 0.061948873 -0.0665424 -0.086504005
0001f0 d4 ea d0 3d 67 8e 9a bc a5 7e 08 be 73 6e 87 3c
       0.1020104 -0.01886673 -0.13329561 0.016532158
000200 67 d1 80 bd e8 52 8e bd 59 4a 87 3d 01 71 ed bc
       -0.0628994 -0.06949407 0.066059776 -0.028984549
000210 96 7d d3 bd 74 3f 21 bd 04 dd d8 bc eb ed 14 be
       -0.10326688 -0.039367154 -0.026472576 -0.14543884
000220 0a 8d b2 bd 4d dc 03 be c7 31 0d 3d 9c e5 b2 bb
       -0.08718307 -0.12877007 0.0344713 -0.0054595005
000230 da 68 d6 ba 9b 57 f2 bc ed ea be bd 24 c3 65 bd
       -0.0016358152 -0.02958279 -0.09322152 -0.056094304
000240 c0 d4 b4 bd 1d 9f 87 3d ba 20 bc bd 1f 06 1b bd
       -0.08829641 0.06622145 -0.091859296 -0.037847634
000250 7d 2a 22 bd 52 4f 37 bc a6 1f 6d 3d 91 f7 90 3c
       -0.0395913 -0.011188345 0.05789151 0.017696174
000260 0e a2 e4 bc b9 7c 41 bc 5f e1 9e bb 22 d7 21 bd
       -0.027909305 -0.011809521 -0.0048486437 -0.039511807
000270 92 70 88 bd 5c 2c 83 bd b8 e2 58 3d c7 59 6b 3c
       -0.06662096 -0.06404945 0.05295059 0.014364666
000280 64 26 1a 3c f4 64 c6 3c 84 2d fd bd 77 0a 2f 3d
       0.009408567 0.02421806 -0.12362197 0.04273459
000290 cb fc 1c 3d f8 0c 85 3a f4 30 04 be ce a6 96 bd
       0.03832702 0.001015096 -0.12909299 -0.07356034
0002a0 87 2f 4f bd 93 63 d8 3d eb 84 b8 bd 0f 74 df 3c
       -0.050582435 0.10565867 -0.09009727 0.02727702
0002b0 87 8c eb bd 7c df 44 bd 87 e7 21 bd 09 94 a0 bd
       -0.11501413 -0.048064694 -0.039527442 -0.078407355
0002c0 18 b8 83 3c 88 28 a7 3d 70 1b d7 3d 5d 9f 89 3d
       0.016078994 0.081620276 0.1050328 0.06719849
0002d0 9d 90 0d be 69 d7 44 bc ba 76 01 be b0 36 00 be
       -0.13824697 -0.012014248 -0.12642947 -0.12520862
0002e0 93 82 02 be ac 7c 98 bd 29 df 48 bc 1f 33 b1 bd
       -0.12745123 -0.07445654 -0.012260237 -0.08652329
0002f0 1a a1 25 3a 80 97 db bd 83 64 cd bb fa da c7 3b
       0.00063182565 -0.10722256 -0.0062680854 0.006099102
000300 71 a2 b4 bc 4f d5 70 bb cc 4a 90 bd 76 4b a8 3c
       -0.022050114 -0.0036748236 -0.07045516 0.020543795
000310 a8 3d f1 bd 90 98 a0 bd 82 c8 31 bd 00 c3 ce bd
       -0.11779338 -0.07841599 -0.04340411 -0.10095787
000320 08 29 92 bc a8 3b 99 bc 71 dd b6 bd fc 8c ae bd
       -0.01784183 -0.018705204 -0.08928955 -0.085229844
000330 86 76 a4 bc 91 c2 64 bd e2 e0 ce bd 33 87 84 bd
       -0.020076048 -0.055849615 -0.10101487 -0.064711
000340 34 e7 b8 bd 69 c9 03 bd 4e f5 07 3d 3f 16 91 bd
       -0.090284735 -0.0321745 0.033192925 -0.07084321
000350 c1 6f 21 be f8 60 72 3d 40 88 1b 3d 2d a6 9e bd
       -0.15765287 0.059174508 0.037971735 -0.07746539
000360 dc a6 bd bc 6c f9 8e bc 30 c6 4c 3d 57 99 2a bd
       -0.023150854 -0.017452918 0.049993694 -0.041650143
000370 93 fc b3 3c 3d 81 41 bd f2 7d 9c bd 3c 7c 4b bd
       0.021971023 -0.04724239 -0.0764121 -0.049679026
000380 84 ea 27 bd eb 1f 58 3d a5 f2 8c bd ed 55 60 bd
       -0.040995136 0.052764814 -0.06882218 -0.054769445
000390 90 bc e9 3d 90 a6 19 bc 77 c4 6e 3c 20 57 98 bd
       0.114129186 -0.0093780905 0.014573208 -0.07438493
0003a0 de 47 a6 3d ce 3a 9f bd df 11 95 bd e8 58 00 be
       0.08119176 -0.07774888 -0.07278799 -0.12533915
0003b0 96 ab 3a bd ac c8 23 3d 22 5e 92 bd f4 04 8a bd
       -0.045573793 0.039986297 -0.07146861 -0.06739226
0003c0 9d 93 c1 3c 1d ba ab bc d3 6c d4 3a ba 24 76 3d
       0.023629958 -0.02096277 0.0016206749 0.06009362
0003d0 47 22 6a bd b3 f4 df bd 6e b6 e1 bd 25 55 6b 3d
       -0.057161596 -0.109353445 -0.11021124 0.057454247
0003e0 fc 97 a1 bd ad eb b3 bd 60 dd 57 3d a1 09 27 bb
       -0.07890317 -0.08785186 0.052701354 -0.0025487917
0003f0 ae ac 43 bd 2f 8f 8c 3b e9 08 69 bd b1 f1 b5 bd
       -0.047772102 0.0042895298 -0.056893263 -0.088839896

bias f4 [128]
000000 33 d5 f2 3d e6 84 23 3d 37 48 20 3d f6 75 4d bd
       0.11857071 0.039921664 0.03913137 -0.050161324
000010 f3 fe 6b 3d bb bc c5 bd bc 05 33 3d 3c a2 10 3d
       0.057616185 -0.09655138 0.04370664 0.03531097
000020 cd 2b 8a bd e6 e3 60 3d 23 e5 7c bd a2 00 00 3d
       -0.067466356 0.05490484 -0.06174196 0.031250603
000030 fe c2 76 3d 4c 38 ca 3d 16 36 44 3d 9c 9d 82 3d
       0.060244553 0.09874019 0.047903143 0.06377718
000040 1d 53 6e 3d 57 13 c7 bc 69 83 a9 bd f2 cc 69 3c
       0.05818473 -0.024301214 -0.082770176 0.014270054
000050 57 3a 0b 3c a5 82 5f 3d 1f e0 e5 3d 50 96 b7 bc
       0.008497796 0.05456795 0.11224388 -0.022410542
000060 2b 0b d3 bc 50 52 4e 3d 0e 1d a5 3d a2 60 fe 3d
       -0.025762161 0.050371468 0.08062182 0.12420775
000070 31 b9 da 3d 74 83 00 3d 1f 2d 0d 3d 22 58 a6 bd
       0.10679854 0.031375363 0.03446686 -0.08122279
000080 b2 4b 70 bd ad 81 61 3e 17 ef 6d 3d 81 fc d5 3c
       -0.05866594 0.22022124 0.058089342 0.02612138
000090 18 c3 ea 3d f4 1d 24 bd aa 57 0f 3e 0e 5a c9 bc
       0.114629924 -0.040067628 0.13998285 -0.024579074
0000a0 5b a8 d4 bc 2a fc cd 3d b6 4f e2 3d da 14 f5 bd
       -0.025959184 0.10057862 0.1105036 -0.11966868
0000b0 01 3d 91 bd c1 da a1 3d e2 14 53 3d fc eb 41 bd
       -0.07091714 0.07903052 0.051533587 -0.047344193
0000c0 b7 6f 96 bd 4b 5f ca bd 98 4a af 3d c6 af 47 3d
       -0.07345527 -0.09881457 0.085591495 0.048751615
0000d0 3d cf a0 bd 3b 9c 66 bd 15 d6 84 bd f1 0e 39 3d
       -0.078520276 -0.056301337 -0.064861454 0.045180265
0000e0 19 a7 ec 3d ba 09 ef bd 6c 3d 1d 3e 4a ba a2 bd
       0.11555309 -0.11671777 0.15355462 -0.07945688
0000f0 db 1a 64 3d 9c 16 8a 3d 43 33 30 3d 78 e6 a1 3d
       0.055689674 0.06742594 0.043017637 0.079052866
000100 6a 38 09 3d 86 c9 be bd f8 17 4e 3d 1c 1e dc bc
       0.033501066 -0.09315781 0.050315827 -0.026869826
000110 e7 fb c1 bd 3f 9c 14 3d ae 33 bb 3c 92 49 89 3c
       -0.09471875 0.03628182 0.022851791 0.016758714
000120 a4 a9 e3 bc 52 0e 2f 3c 18 95 17 3c f2 37 74 3e
       -0.027790852 0.010684567 0.009251855 0.23849466
000130 22 80 ab bc 4f 84 93 3d 96 4b 0d be b2 cb bb bd
       -0.020935122 0.0720297 -0.13798365 -0.09169711
000140 86 6a 73 3d b3 89 f7 3d 3a 05 fc 3d 92 91 85 3d
       0.05942776 0.12086811 0.123056844 0.06521906
000150 9c 88 cd 3d e0 98 39 3b ed 60 41 bc d9 ca ee bd
       0.10035822 0.002831988 -0.011802894 -0.11659784
000160 52 aa a1 bc f6 d5 6e 3d 32 bb 4e bd 4c 01 07 3d
       -0.019734535 0.058309518 -0.050471492 0.03296022
000170 a9 18 48 3d 23 4b 6b bd 9c 54 4b 3d 23 1c 9c 3d
       0.048851643 -0.057444703 0.049641237 0.07622554
000180 6d 1a d2 bd a7 63 5b 3c 37 8c 88 3d 42 6b 22 3d
       -0.102589466 0.013390458 0.06667369 0.03965307
000190 5e c0 5d 3d ae 3b 89 3d 99 c8 b4 bd db 1e 0b be
       0.054138534 0.06700836 -0.088273235 -0.13585989
0001a0 e8 92 0b 3e 4c 33 04 3d 12 bf e9 3d f4 da d1 bd
       0.13630259 0.032275483 0.11413397 -0.1024684
0001b0 c8 ba 2e be 5f b8 da 3d 94 35 c6 bd 88 82 e3 3d
       -0.17063439 0.10679697 -0.09678188 0.11108881
0001c0 17 b2 ba bc cf 53 87 bc a6 ea 2e be 3f b7 5e 3d
       -0.022789998 -0.016519455 -0.17081699 0.054373976
0001d0 ec d4 16 bd 06 9c c6 bd 35 0b 9c 3c b1 52 5b bd
       -0.036824152 -0.09697728 0.019048313 -0.053545658
0001e0 e2 37 86 3d b4 41 b7 bc a9 b0 cc 3d 08 19 8b 3d
       0.065536276 -0.022370197 0.09994633 0.06791884
0001f0 e8 71 a3 bc ec 78 5f 3d ff 59 8e bc f5 9e d4 3d
       -0.019951776 0.05455868 -0.017376898 0.10381881

weight f4 [10, 128]
000000 35 44 a5 bd 1b 77 dd bc 47 8a 32 3d ff 25 84 be
       -0.0806965 -0.027034333 0.043588903 -0.2581024
000010 26 44 f7 3c a2 01 2c 3e 91 7a 5c 3d dc d2 5e be
       0.030183863 0.16797498 0.053827826 -0.21760124
000020 b2 f5 33 3e 33 96 a2 3d c1 b7 07 3e b9 72 a1 bd
       0.17574194 0.079388045 0.1325369 -0.0788321
000030 c6 a3 10 3e 23 34 cb bd 7d 87 86 3d 62 6b 66 3d
       0.14124975 -0.09922054 0.06568811 0.056254752
000040 fd 0f 27 3e b4 67 1f bd 60 e5 05 3d a6 4b d1 be
       0.16314693 -0.03891726 0.032689452 -0.40878028
000050 af 4d 95 3d 4a 76 d0 be 8d a6 d7 3b 2a 82 20 bd
       0.072902076 -0.40715247 0.0065811337 -0.039186634
000060 93 79 6a 3b 11 78 6c 3e 76 1b f6 3a 30 15 4c 3d
       0.003577803 0.23092677 0.0018776495 0.049824893
000070 da 46 fc 3d b1 4b 91 bc 31 0d 3a bc 84 64 8d 3d
       0.12318201 -0.017736288 -0.011355684 0.069039375
000080 ab ce bb 3c ff 35 08 be 65 f5 c5 3d f3 90 9e be
       0.022925695 -0.13301848 0.09665946 -0.30969962
000090 a6 db b8 3d 59 6b f9 3d c4 77 81 be 56 15 df 3d
       0.090262696 0.12178678 -0.25286686 0.108927414
0000a0 d7 09 f3 be 59 c5 ab bc 87 de 41 bd a9 e3 12 3e
       -0.47468445 -0.020968126 -0.04733136 0.14344658
0000b0 48 fe d9 be de 7c db 3c 87 99 77 be 6c 15 02 3c
       -0.42576814 0.02679294 -0.2417966 0.007939678
0000c0 d0 37 f4 bd 1a 28 6b 3c 16 0a a8 3d d1 c3 0e 3e
       -0.11924708 0.014352823 0.08205049 0.13941886
0000d0 0c 89 0f bd 68 09 f1 3d 00 a3 45 be c4 9e 62 3a
       -0.035042807 0.11769372 -0.19300461 0.0008644874
0000e0 aa 13 b2 bd af 70 2d 3e a9 c2 60 bd 27 f0 b9 3d
       -0.08695157 0.16937517 -0.054873142 0.090790085
0000f0 63 10 1f be bd 03 92 3d 2a 60 16 3d 16 37 29 bd
       -0.15533595 0.07129619 0.036712803 -0.0413123
000100 d0 42 6f bd f0 1c e7 3c 6a 3f 82 be d1 ff 1a be
       -0.058413327 0.02821204 -0.25439006 -0.15136649
000110 a4 31 0d 3c 3e 47 73 bd 97 42 35 3b fb 7b 05 3e
       0.008617792 -0.059394114 0.00276581 0.13035576
000120 ec 98 8f 3c 23 eb 61 3d c8 80 55 3b 85 7d ac bd
       0.017528974 0.055155884 0.003257798 -0.084223785
000130 03 8c 48 bd f7 b6 8b be 6a e1 a2 be 58 8e 66 be
       -0.04896165 -0.2728803 -0.31812602 -0.22515237
000140 0c 0b f4 bd 9f 15 db bd 52 84 d2 bc 0d 7a 69 3d
       -0.119161695 -0.10697483 -0.02569786 0.057001162
000150 02 77 ba 3d 4d 8b ab 3d 4e ab 80 be 06 6b a1 be
       0.0910473 0.08376179 -0.25130695 -0.31526965
000160 74 e1 fb 3d 5c c9 e3 ba e3 91 6d bd 9b b8 c4 be
       0.12298861 -0.0017378735 -0.058000457 -0.38422093
000170 98 30 26 be e6 e6 c4 bb 66 76 92 3d 2f 05 8d 3b
       -0.16229475 -0.0060089706 0.07151489 0.0043035964
000180 cb 62 42 be 3f b8 e1 bd f1 ec ef 3d 6f 8d da be
       -0.18982999 -0.1102147 0.11715115 -0.4268603
000190 3b b1 ca be ca c1 6b be 47 d5 55 bd 04 be 99 3d
       -0.3958834 -0.23023143 -0.05220535 0.07506946
0001a0 76 51 d1 3d e6 e6 76 bd b0 59 24 3d 07 07 41 3e
       0.102206156 -0.060278796 0.040124595 0.18850337
0001b0 24 c8 8f bd 03 94 f2 bd 88 d1 12 be 50 db ae 3b
       -0.07020596 -0.11844637 -0.14337742 0.0053362027
0001c0 bf f1 d2 bc 01 90 9a 3d 95 95 e6 3e 80 29 fb bd
       -0.02575004 0.07546998 0.45035997 -0.12263775
0001d0 70 b0 af bc 5c ff c4 bc ac 52 14 be a0 4d 09 3e
       -0.021446437 -0.024047546 -0.14484662 0.13408518
0001e0 92 2e e3 3d 02 02 f1 3d fa 40 b6 3d 7a 37 37 be
       0.11092867 0.11767961 0.08899112 -0.17892256
0001f0 21 45 08 3c 3f 5e cc 3c b3 d6 2a be 8d 65 6f be
       0.008317263 0.024947284 -0.16683464 -0.23378582
000200 6b 76 58 be 71 8a 1b be 26 ac 12 be 8a e7 71 bc
       -0.21138923 -0.1518953 -0.14323482 -0.014764676
000210 ea 1f 79 bd 59 04 dc be 0e 37 af bd 2d cc f5 3d
       -0.06082145 -0.42972067 -0.08555423 0.12001834
000220 99 cc 37 be dd d7 5f 3b 5d 3d 95 bd 89 f3 a4 bd
       -0.17949142 0.0034155764 -0.07287095 -0.08054263
000230 9c 03 38 be 42 fa 31 3d 92 43 6a 3e 1a 2a 71 be
       -0.17970127 0.043451555 0.22877339 -0.23551217
000240 ad 5d 6d 3e ef 0b 17 be d1 c6 6e 3c b4 1b 1d 3e
       0.23180266 -0.14750646 0.014573769 0.15342599
000250 e0 91 08 be ea 2e 2e be a0 b7 0d bf 8b bd 2c bd
       -0.13336897 -0.17010084 -0.55358315 -0.04217295
000260 1d ec 34 bc 20 b3 2c be a1 0b f2 3c c9 85 30 be
       -0.011042622 -0.16865206 0.02954656 -0.17238535
000270 f4 a5 c5 be 93 d5 bd bd fb e7 f6 bc d0 07 e2 3d
       -0.38603175 -0.09269252 -0.030139914 0.11036646
000280 8e b7 08 3d c6 26 2c bd 36 70 11 3d a2 0f d4 be
       0.033378176 -0.042029165 0.035507403 -0.41418177
000290 8e 26 0a 3e 1d 50 9f 3d 62 98 8d be 80 3f 9c be
       0.1349127 0.07778952 -0.2765532 -0.30517197
0002a0 dd df 2a be ba 58 00 3e c1 19 90 be 36 be cc be
       -0.1668696 0.12533846 -0.2814465 -0.3998887
0002b0 9e da 94 be ee e7 0e be e2 7f 81 3d 46 a3 ab be
       -0.29073042 -0.13955662 0.0632322 -0.33523005
0002c0 84 44 b2 3b d1 77 8b 3e 6e 4e 32 3e 6a 9b f5 bc
       0.0054402966 0.2723985 0.17412731 -0.029981334
0002d0 b6 09 f2 3b 98 de 28 bd 31 70 20 3e 6c 8b 8f 3d
       0.0073864115 -0.041227907 0.15667798 0.070090145
0002e0 88 4d 6f be af ab 81 3c 28 39 b8 be e4 27 b3 bd
       -0.2336942 0.015828935 -0.35981107 -0.08747843
0002f0 60 3c fe be cc 75 20 be 42 30 a5 bd 72 c6 68 be
       -0.49655437 -0.15669936 -0.08065845 -0.22731951
000300 5b 7c 3c be 4c c2 98 3d 3f 98 e6 3d 0d 7c a5 3d
       -0.18406813 0.07458934 0.112595074 0.080803014
000310 42 14 d4 3c f9 e3 bb bd 3a 1b 9a be 3e dc c9 3d
       0.025888566 -0.09174342 -0.30098897 0.09856461
000320 61 6a 95 be cc 7a 5d 3d eb ec 9c 3d 25 59 42 be
       -0.29182723 0.054072186 0.07662376 -0.18979318
000330 f3 b3 9e 3d 7c 97 ff 3c f8 9f f6 3d 58 f2 49 be
       0.07749166 0.031200163 0.1204223 -0.19721353
000340 d5 ef 81 3e 0a 5a e5 bd 16 34 1e 3e a2 81 58 3e
       0.2537829 -0.11198814 0.15449557 0.21143201
000350 c6 37 7b bc 74 ba ff bd f9 fb c8 3e c3 5d 02 3f
       -0.015333122 -0.12486735 0.3925474 0.5092432
000360 12 37 78 be e1 d3 87 bd 6f eb ae be 9d 5a c9 be
       -0.24239758 -0.066322096 -0.34163997 -0.39326945
000370 c5 65 06 3d 1a 62 8a 3d 93 e7 3b 3d 21 d1 3b bd
       0.0328119 0.06756993 0.045875143 -0.045853738
000380 15 4a b1 bd af 3c 83 3e 50 a3 f6 be b9 1a 52 be
       -0.08656708 0.25632235 -0.48171473 -0.20518006
000390 a6 3e 50 bc 08 f6 94 3d c3 7a be be c1 3b 49 3d
       -0.012710249 0.07273489 -0.37203035 0.04912925
0003a0 ed 43 99 3d 5c 7f 2b be 16 c8 29 be 60 36 f1 bd
       0.07483659 -0.16747802 -0.16580233 -0.11777949
0003b0 b0 08 5d bd 32 57 7f 3e 93 25 a9 3d 21 61 95 3d
       -0.053963363 0.24935606 0.0825912 0.072939165
0003c0 e9 2d 49 3e e9 80 96 bd 36 51 ab be aa 20 c9 be
       0.1964642 -0.073488064 -0.33460397 -0.39282733
0003d0 0c 78 09 be 6a 14 89 bd 58 8f 29 3e 6e 37 97 be
       -0.134247 -0.06693347 0.16558588 -0.29534477
0003e0 97 72 ed be 89 76 4a 3e f8 ef 6a be bb 4d 55 be
       -0.46376488 0.1977178 -0.22943103 -0.20830433
0003f0 87 2c 5a bd ed 73 80 3c ac af cf 3e 70 78 41 3e
       -0.05326512 0.015680278 0.40563715 0.188936

bias f4 [10]
000000 78 d4 90 bc 3d e6 32 be eb 55 bc bc 8a 40 e9 bc
       -0.017679438 -0.17470641 -0.022990188 -0.028473157
000010 90 21 03 be 1b 02 d4 bb 00 9e f7 3c 62 2f 7d 3d
       -0.12805772 -0.0064699776 0.030226707 0.061812766
000020 07 d1 37 3e 7e bf fd bd
       0.17950831 -0.1239004
